backend: tensorflow
class_name: Sequential
config:
  layers:
  - class_name: Embedding
    config:
      activity_regularizer: null
      batch_input_shape: !!python/tuple
      - null
      - 580
      dtype: float32
      embeddings_constraint: null
      embeddings_initializer:
        class_name: RandomUniform
        config:
          maxval: 0.05
          minval: -0.05
          seed: null
      embeddings_regularizer: null
      input_dim: 14000
      input_length: 580
      mask_zero: false
      name: embedding_1
      output_dim: 150
      trainable: true
  - class_name: BatchNormalization
    config:
      axis: !!python/object/apply:tensorflow.python.training.tracking.data_structures.ListWrapper
      - - 2
      beta_constraint: null
      beta_initializer:
        class_name: Zeros
        config: {}
      beta_regularizer: null
      center: true
      dtype: float32
      epsilon: 0.001
      gamma_constraint: null
      gamma_initializer:
        class_name: Ones
        config: {}
      gamma_regularizer: null
      momentum: 0.99
      moving_mean_initializer:
        class_name: Zeros
        config: {}
      moving_variance_initializer:
        class_name: Ones
        config: {}
      name: batch_normalization_1
      scale: true
      trainable: true
  - class_name: Dropout
    config:
      dtype: float32
      name: dropout_2
      noise_shape: null
      rate: 0.2
      seed: null
      trainable: true
  - class_name: LSTM
    config:
      activation: tanh
      activity_regularizer: null
      bias_constraint: null
      bias_initializer:
        class_name: Zeros
        config: {}
      bias_regularizer: null
      dropout: 0.2
      dtype: float32
      go_backwards: false
      implementation: 1
      kernel_constraint: null
      kernel_initializer:
        class_name: GlorotUniform
        config:
          seed: null
      kernel_regularizer: null
      name: lstm_1
      recurrent_activation: sigmoid
      recurrent_constraint: null
      recurrent_dropout: 0.2
      recurrent_initializer:
        class_name: Orthogonal
        config:
          gain: 1.0
          seed: null
      recurrent_regularizer: null
      return_sequences: false
      return_state: false
      stateful: false
      time_major: false
      trainable: true
      unit_forget_bias: true
      units: 200
      unroll: false
      use_bias: true
  - class_name: Dropout
    config:
      dtype: float32
      name: dropout_3
      noise_shape: null
      rate: 0.2
      seed: null
      trainable: true
  - class_name: Dense
    config:
      activation: sigmoid
      activity_regularizer: null
      bias_constraint: null
      bias_initializer:
        class_name: Zeros
        config: {}
      bias_regularizer: null
      dtype: float32
      kernel_constraint: null
      kernel_initializer:
        class_name: GlorotUniform
        config:
          seed: null
      kernel_regularizer: null
      name: dense_1
      trainable: true
      units: 1
      use_bias: true
  name: sequential_2
keras_version: 2.2.4-tf
